03-blog-experiments/quantization_in_ml/quant_mini2/model_fp32.pth (torch, 943609 bytes, 6 tensors)

fc1.weight f4 [256, 784]
00000000: ff3d 113d d6cd 07bd 32b1 39bc 28ee c03b
00000010: 78f2 d03b 00c5 b7ba 0890 153c eaa2 2ebc
00000020: 05db c5bc d2ca e33c c5dc 9fbc 8040 d63c
00000030: c49b 23bc d66d cbbb 8199 813b e9a5 50bc
00000040: 24d3 273c aa89 51bc 1e94 d23c 35fc 81bc
00000050: 78ff aa3b e11e e5bc 6610 e43c 1ece d1bc
00000060: 1c67 a33c da53 f0bc a038 0e3b fba6 09bd
00000070: a461 bebb 0053 29bc 8e8d d93c 1064 453c
00000080: b808 ebbc d5d1 d2bc 33fd af3c 1adb 8abc
00000090: b349 703c 701e fbbc 6d57 19bc c7f3 cfbc
000000a0: e555 b1bc 7a23 92bd e23a 793d a7d2 bb3d
000000b0: f7f2 b23d 9079 ee3c 17ba f8bc a932 4abd
000000c0: e72d bebd 99ad 2abd 4f09 92bc 44cd 2bbd
000000d0: 56c9 a03c c0e2 623c 8b3f 123d 0023 e139
000000e0: c014 0f3c 184e fcbc d182 013d f886 a13c
000000f0: 602f 8dbd 6e8d 093c 8611 0ebd d083 4d3b
00000100: 762e 8dbb 8e97 313d b51a ed3c dfb8 883d
00000110: e4c3 ee3d 9a88 6ebd c8b0 1fbd b75d 5fbd
00000120: 2289 acbc 28a7 b7bd 0c6f 11be 9565 74be
00000130: 711e 2dbe b8a9 acbd af30 e2bd 1b03 6ebd
00000140: 7170 3bbd 0269 4abc bcd1 6fbc 4034 e6bb
00000150: cd89 0b3d aa62 99bc 4327 093e d7c9 0b3e
00000160: 84b5 0bbc 7fb2 91bd 842f 9abc a7dd 6abd
00000170: 19c1 2bbe fb16 fb3c ff7c 003d 2694 d63d
00000180: 5c58 8a3d 2167 813d 9819 ea3d 818b b53c
00000190: 8ffc d8bd 8e0a aabd 9eea c2bd ff6f 4fbd
000001a0: 84f6 11be 2781 fdbc 7239 62bc 032a 83bd
000001b0: 0e44 a4bd b479 e4bc d0ef 6e3b 12f1 57bc
000001c0: 4674 f73c d5e4 95bc d585 173e 8ceb db3d
000001d0: 9f16 2bbb 28c8 9dbd 4f20 6ebd ca91 efbc
000001e0: 4428 c8ba bbcd 0c3c 9bb5 a93b ab4b af3d
000001f0: 6e37 2a3e 07dc 763d 1a99 9c3d 32a4 ae3c
00000200: 27f5 e43c db24 4fbd faee 18bd f54e 65bd
00000210: 80a0 ad3c bea2 d8bc 9b62 b3bc 1eb4 03be
00000220: 08f0 f9bd b7f7 383c 6f83 df3d a2c2 033e
00000230: 9ce0 a6bb 327f ae3c 872c 193e 17a3 283d
00000240: 688b 173d efcb c6bc 356c 5f3d a524 073e
00000250: d48d b03d c443 253d 32b2 76bc 77ef 113d
00000260: 7712 5a3d 74e8 653d 2e81 253d 352e 1e3d
00000270: e6b4 483d 0ca8 2cbd c37d 273c 3ba6 4d3d
00000280: 790d 2fbc 9e27 38bc 8d98 00bd 9399 bfbd
00000290: 5acb d2bd 04ee bb3d 980f 893d 6cc3 773d
000002a0: 2888 103c a140 afbb a6e3 07be bc30 463d
000002b0: 1a6d 7e3d 53e4 17be 3f4b 79bd 817b fb3c
000002c0: aea4 183c 9c0f 953c 8e66 a5bd 308b 2abd
000002d0: 4a35 c6bc 5fb8 403d c5c5 cf3c 9fb1 b53d
000002e0: 21bf ad3d 49f5 203b d769 103c 16f5 0bbd
000002f0: 7431 d1bd e951 983a c55e 97bd 573f 9d3c
00000300: fd14 e5bd 7c59 8d3d cd55 5d3d bd78 493d
00000310: 579c 0a3d 81b5 a03d 4ac1 94bd c397 fa3c
00000320: a58d 8fbc 5e1c 2ebe 0113 01bd ab30 9cbd
00000330: b86a 94bc da51 a1bd f6e2 a1bd 2f66 91bc
00000340: bbd8 853c e49f 1f3c ba93 17bd f3dc 993d
00000350: 6b94 3d3d 89ec 45bc d83d d1bc 1c29 06bc
00000360: e578 80bd a34d 16bd 1bb0 243d 674a efbb
00000370: 7ffd 023d 82a9 253d dbf6 49bc 893a c83d
00000380: 1990 3fbe 5133 f03d f309 f1bd e80f c4bc
00000390: fd80 25bd 60c9 25be db7f 7cbd 21f9 0ebe
000003a0: c473 aabc 19b1 2abd 97ae fa3c cb9b 9f3b
000003b0: fde2 aabc a2b8 09bd a469 34bc 2736 183d
000003c0: decf 653c f738 e1bb d8b8 a73d b68c 223d
000003d0: 6764 adbd 698b e3bd 9c85 963b 6208 dbbc
000003e0: ae25 5ebd ed62 97bd 34c5 0f3c 8c81 8e3d
000003f0: 61ac e33c e4b2 eabc 4db2 21bd b8c5 9d3d
0.035459515 -0.033155285 -0.011333751 0.0058877654 0.006376561 -0.0014020503 0.009128578 -0.010658959
-0.024152288 0.027806673 -0.01951445 0.026153803 -0.009985868 -0.006208162 0.0039550667 -0.012734869
0.010243211 -0.012789169 0.025705393 -0.015867332 0.0052184425 -0.027968826 0.02783985 -0.02561098
0.019946627 -0.029336859 0.0021701232 -0.03360651 -0.0058099795 -0.01033473 0.026556756 0.012047783
-0.02869068 -0.025734821 0.02148304 -0.016950179 0.014666009 -0.030654162 -0.009359223 -0.025384797
-0.021647403 -0.07135673 0.06084717 0.09171038 0.08737748 0.0291107 -0.030362172 -0.04936472
-0.09286099 -0.041669462 -0.017826704 -0.041943803 0.019627254 0.013848007 0.03570513 0.0004294142
0.0087329745 -0.030798957 0.031618897 0.019717678 -0.06893802 0.008395536 -0.03468468 0.0031359084
-0.004308517 0.043357424 0.028943399 0.06675886 0.11658457 -0.058235742 -0.03898695 -0.054532733
-0.021061484 -0.089674294 -0.14202517 -0.23866875 -0.16906144 -0.08430809 -0.11044442 -0.05810843
-0.04576153 -0.012354137 -0.014637407 -0.0070252717 0.034066964 -0.018723805 0.13393883 0.13651215
-0.008527163 -0.071141236 -0.018821485 -0.05734029 -0.1677288 0.030650606 0.031369206 0.10477476
0.067551345 0.063184984 0.11430663 0.022161247 -0.10595047 -0.083027944 -0.09517406 -0.050643917
-0.14254194 -0.030945374 -0.013807641 -0.064044975 -0.08020793 -0.027890064 0.0036458857 -0.013180034
0.03020681 -0.018297592 0.14797147 0.107382864 -0.0026106013 -0.077041924 -0.05813628 -0.029244322
-0.0015270789 0.008593972 0.0051791198 0.085593544 0.16622707 0.06026843 0.07646389 0.021318529
0.027948929 -0.050572257 -0.03733728 -0.055983502 0.021194696 -0.026444789 -0.021897605 -0.12861678
-0.122039855 0.011289529 0.10913741 0.12867215 -0.0050926935 0.021300886 0.14958392 0.04117116
0.036998183 -0.024267165 0.054546554 0.13197573 0.086208016 0.04034783 -0.0150571335 0.035628762
0.053240266 0.056129888 0.0404064 0.038618285 0.049000643 -0.04215245 0.010222855 0.050207358
-0.0106843645 -0.011239914 -0.031395484 -0.09355464 -0.102926925 0.09176257 0.066924274 0.060489103
0.008821525 -0.0053482805 -0.13270435 0.04838632 0.062115766 -0.14833193 -0.060862776 0.03069854
0.009316606 0.01819592 -0.080762014 -0.041636646 -0.024195332 0.04705083 0.025362859 0.08871769
0.084837206 0.0024560264 0.008814297 -0.03416928 -0.102145106 0.0011621091 -0.07391123 0.019195242
-0.11185644 0.069018334 0.054036904 0.04918741 0.033840504 0.07847119 -0.072634295 0.030589944
-0.017523596 -0.17003009 -0.031512264 -0.0762647 -0.018117294 -0.0787694 -0.079046175 -0.01774892
0.016338697 0.009742711 -0.037006117 0.07512846 0.04628412 -0.01208032 -0.025542185 -0.008188512
-0.06273059 -0.036695134 0.04020701 -0.0073025706 0.031980034 0.04044486 -0.012326921 0.0977679
-0.18707313 0.11728538 -0.11769476 -0.023933366 -0.040406216 -0.161901 -0.06164537 -0.13962223
-0.020807154 -0.0416728 0.030600829 0.004870867 -0.02086019 -0.033623345 -0.011011515 0.03716102
0.01402661 -0.006873246 0.08189553 0.039684974 -0.08466416 -0.11110575 0.004593564 -0.026737396
-0.054235153 -0.073919155 0.008775044 0.06958303 0.027792158 -0.028649755 -0.03947668 0.077037275

fc1.bias f4 [256]
00000000: 522f e2bc 7944 553e 1d74 60bd 7004 f83b
00000010: 4031 e4bc d49d 5fbd 31f2 d8bb 9ff2 9e3c
00000020: bb59 a83c d0b8 893d 3732 d63d 24f0 23bd
00000030: 6c33 eb3c 93ce e7bc 3c9a b73d 8fb7 a83d
00000040: ea1a 8a3b 8dfb 883d d33f e8bc cf5f 3f3d
00000050: e374 923c 0349 68bd 3388 0c3d bc0d 933d
00000060: f958 ecba 9f25 553d 6159 9b3d af90 293d
00000070: 0a56 923d f357 fd3d 608f d7bb fc95 343d
00000080: 99c7 4f3d e590 903c 3544 21bd 9f68 3e3d
00000090: 50db 09bd 9ec8 cf3c e91a e03c 6545 093e
000000a0: 1a13 6d3d f635 9ebd 4367 9a3c 328f 9f3c
000000b0: 2e52 333c 377a 8dbc 3f04 f33d c540 103d
000000c0: 2e0e 70bc 251b 3c3b e87f 353c e8f4 27bd
000000d0: 234a 86bc 8360 363d 9def 9b3c 0227 9d3c
000000e0: d70c 5c3d e828 ee3c 65e1 75bb 637b d6bd
000000f0: fa75 21bc 9587 aa3d e492 793d 2e9b 15ba
00000100: dda6 c13d 9a38 b73c 5ea9 da3c 1af1 9c3d
00000110: c73d 2bbd e551 b7bd d4f4 283d 3a59 0d3e
00000120: b367 06bc 4cc0 cd3b e7be 223e 1c48 193d
00000130: 6dae 973b fd21 a23d 9e85 c6bc 1c65 06bd
00000140: d50d a13d b4ff b3bc 66a9 6d3d aa53 48bd
00000150: 194b b83d 64b9 313d 1f16 f63c 1d83 9fbc
00000160: 0315 c2bc 776d 8dbd fcf8 8a38 a61c 943b
00000170: b128 1abc adca 0d3e 5d19 273c cf65 123c
00000180: a76a bd3d efb9 8cbc bfea 47bd cf05 533d
00000190: 00f8 1ab5 fe73 553d 5dc5 7b3d 7d2e 563d
000001a0: 41a8 81bc 3d18 5bbc ccf8 e23d 0cf8 f03c
000001b0: ae2e 18bd ba12 42bb c098 f8bc 1505 1cbd
000001c0: 7c25 743c 0a4a d53c a42d 1cbd 70aa 233d
000001d0: a1cb 62bd 897f 93bd 169e 56bd 752f 27bc
000001e0: f329 80bd 2d6d 6dbd 014f 31bd 89e4 293d
000001f0: c8ca 22bc 99ef a13d cbdc 0ebc fe46 33ba
00000200: fab0 4d3d 23e2 f8bc 362c 65bc 6420 843d
00000210: 46ea b8bb e501 b0bd f561 5e3c c624 ccbc
00000220: c500 1f3b 6d72 2e3d 3fa3 c43d d308 023d
00000230: 6027 23bd f29a 00bd 750a 7f3d 7a2e 503d
00000240: a254 49bd 826d 9dbb 8d52 0f3d b268 f93d
00000250: b5c7 7c3c 01f2 c83d ecb2 353e 8435 333d
00000260: ba26 f43d fedd 9b3c 4bbc abbc 9caa 7ebc
00000270: f87e e13d 0be1 663d b4e8 a33b 685d 323d
00000280: f459 d53d 18ae bdbc 493e 5e3c a8d2 8bbd
00000290: ba06 a0bd 655e 6a3d 5858 28bb e4b6 a4bb
000002a0: 8274 3fbc b8e7 b2bd 1768 993d 9046 f03d
000002b0: 3644 2abd a578 fe3d f32c 033e c817 82bc
000002c0: 4f29 b23d 7fbd 083c 09be bcbd 91c6 1b3d
000002d0: e553 c4bc 9f6a ae3d 3bcb 0e3d 13e6 93bd
000002e0: 333e 2a3d 4600 8bbd 03d3 543d ce7e ff3d
000002f0: 5952 05bd 2243 ab3d f011 0e3d 83e2 ab3d
00000300: 29f3 7c3d af69 8f3c d003 d93d 46bc 463e
00000310: 2169 173d 4c77 aa3d 0553 b5bd 0f2b edbc
00000320: f13e d33c ed27 af3c 0009 5f3d ad96 28bb
00000330: 9f3a 81bd c56a 0dbc 58d9 713a b214 ce3c
00000340: 67ad df3c 7ae6 f6bb 0ff3 583d d30a 0c3e
00000350: 2b76 c53c e8b6 2abd e324 523d 5398 12be
00000360: 2f29 603d ef66 a73d 3279 813c 32b8 013e
00000370: f3bf 0f3d 5ce5 6c3c 620e 8bbd 0634 90bc
00000380: 6503 d03d 18f1 233e d928 143d a616 763d
00000390: b56e 9abd ee0d 603d 001c 02bd c91b d73c
000003a0: 08ca 4a3d 7249 88bc 1b7a c4bd 1e78 b53c
000003b0: 1393 193e 568c 2e3d eafe a13d a262 78bc
000003c0: d26e 1f3c 2e6e bd3d ccb7 b73c f088 06bd
000003d0: eb9d 38bc 8759 c0bc 90af d039 6c0f 053d
000003e0: e2c4 c5bd b3bb de3c 9441 8d3c 113e 4bbd
000003f0: d552 e9bb 5654 b33d 9452 56bc 2a7b e23b
-0.027610455 0.20826901 -0.054798234 0.0075688884 -0.027855515 -0.054593876 -0.0066206683 0.0194028
0.0205506 0.06724703 0.104587965 -0.040023938 0.028711043 -0.028296744 0.08964965 0.08238136
0.004214634 0.066886045 -0.028350746 0.04672223 0.017878002 -0.056710254 0.034309577 0.07180354
-0.0018031887 0.05203783 0.07585407 0.041397747 0.07145317 0.123702906 -0.006578371 0.04408835
0.05072746 0.017647216 -0.039371688 0.046486493 -0.03365642 0.025364216 0.027356582 0.13405378
0.057879545 -0.07725136 0.018848067 0.01947746 0.010944886 -0.01727019 0.11866044 0.03521802
-0.014651818 0.0028702703 0.0110778585 -0.041005045 -0.016392773 0.044525634 0.019035155 0.01918364
0.053723183 0.02907224 -0.0037518379 -0.10472753 -0.009854788 0.083266415 0.0609311 -0.00057070225
0.09455655 0.022365857 0.026692089 0.07663174 -0.041806962 -0.08951167 0.04124911 0.13803568
-0.008203435 0.006279027 0.15893136 0.037422284 0.0046289475 0.07916639 -0.024233636 -0.03281127
0.078639664 -0.021972515 0.05802288 -0.048907913 0.08998699 0.043389693 0.030039845 -0.0194717
-0.02369166 -0.069056444 6.62673e-05 0.0045200167 -0.009409116 0.13846846 0.010198918 0.008935406
0.09248858 -0.017178504 -0.048807856 0.05151921 -5.773036e-07 0.052112572 0.061467517 0.05229043
-0.0158273 -0.013372478 0.110826105 0.029415153 -0.037153892 -0.0029613213 -0.030346274 -0.038090784
0.014901515 0.026036281 -0.038129464 0.039957464 -0.055369977 -0.0720206 -0.052396856 -0.010204186
-0.06258001 -0.057965446 -0.043288235 0.041477714 -0.009936042 0.07907028 -0.008719633 -0.0006838887
0.050217606 -0.030381268 -0.0139875915 0.064514905 -0.005643162 -0.08594111 0.013573159 -0.024919879
0.0024261933 0.042589594 0.09601449 0.031746697 -0.039832473 -0.031397767 0.062265832 0.050825574
-0.049152978 -0.004804314 0.034990836 0.12178172 0.015428473 0.098117836 0.17744035 0.04375221
0.11921449 0.019026753 -0.020963809 -0.015543606 0.110105455 0.05636696 0.0050021056 0.04354611
0.10417548 -0.023154303 0.013564655 -0.06827289 -0.07813783 0.057218928 -0.0025687423 -0.005026685
-0.0116854925 -0.08735603 0.07490557 0.11732209 -0.041568957 0.12425355 0.12810116 -0.01588048
0.08699285 0.008345961 -0.09215934 0.038031165 -0.023965785 0.0851643 0.034861784 -0.072216175
0.041563224 -0.067871615 0.05195905 0.12475358 -0.032549236 0.08362414 0.034685075 0.08392813
0.061755333 0.017506449 0.1059643 0.19407758 0.036965493 0.08323535 -0.08853725 -0.028951196
0.025786849 0.021381343 0.054451942 -0.0025724575 -0.06310009 -0.008631413 0.0009225807 0.025156353
0.027304364 -0.007534799 0.052966174 0.13676004 0.024104198 -0.04167834 0.05130471 -0.1431592
0.054726776 0.0817393 0.01580486 0.12667921 0.035095166 0.01445898 -0.06789853 -0.017602932
0.101568975 0.16009939 0.036171768 0.060080193 -0.07540647 0.054700784 -0.031764984 0.026258366
0.04950908 -0.016636584 -0.09593602 0.022152003 0.1499751 0.042614304 0.07909949 -0.015160235
0.009731011 0.09249531 0.022426508 -0.032845438 -0.011268119 -0.02348019 0.00039803656 0.03248541
-0.09656693 0.027189111 0.017243184 -0.049619738 -0.00712047 0.0875632 -0.013081212 0.006911655

fc2.weight f4 [128, 256]
00000000: a62c f3bd 5cf9 0bbd c600 973d 0490 bdbd
00000010: 893c b03c d57f 84bd c93c 6f3c 6bdf 353b
00000020: 620b 493c f71f a83e f141 9f3d 9a59 53be
00000030: 3483 0abc 59de 6dbd 9b22 b53c 1246 98bc
00000040: 8e20 d6bd f8eb 943c 02dc 393e 2774 863d
00000050: a89a 093d 7d8c f7bb d841 4fbd f4a4 64be
00000060: 4005 8dbd 88f7 babd 347b 52bd af18 493d
00000070: 4296 763c 27de a63c 0fa2 c5bb e357 59be
00000080: 1b5f c13d e963 c83a 341b 463d 9b05 523d
00000090: db55 4cbd 68e1 04be 6d08 293d 0ad8 bb3d
000000a0: f19d 50be 7790 0b3e d3d4 033d acfe 003e
000000b0: 8e39 103e 5b6c 953d 0ec1 a03d 5094 c4bd
000000c0: 92c0 8ebb b91e 32bc 7521 e6bc ecc6 9fbc
000000d0: 9423 a2bd f4d7 f13d ebcd 073d 623b 1abe
000000e0: f2e6 9d3c f4c3 473d 03e1 583d 0c8c 1f3a
000000f0: dec7 5b3d 0cf0 9cbb 2862 1fbc a7db 163e
00000100: b650 21be 980a 7b3d 6781 0d3c 22e0 cdbd
00000110: dd32 b63c 70cf 923d b2e0 60be a472 6fbe
00000120: a33c ed3c d66a 51bd 059b 993d 0f92 d53c
00000130: 1cb7 113d eaa3 6bbc de3c 563d 7d4a bebd
00000140: 8eb6 bbbd ddfc 64bc 44bf 93bd 36bf a53d
00000150: 3da2 223c 8e78 d63b 03c0 38be f32b 2cbd
00000160: ee24 70be fb4e c33b 19a7 843d c311 4b3c
00000170: c230 a9be 3ac1 183e 024a 1abb 7dd7 eabc
00000180: 6448 763d 1ae3 f0bd bcbb 99be 05a5 70bd
00000190: 7de8 983d a175 673d 674f 8fbb 210f c9bb
000001a0: 1632 11be 6b92 3a3e cab4 7e3d 7057 dbbc
000001b0: da93 063d ae2b aabd 41f3 30bc 9aae e0bc
000001c0: 7fd7 863d 473c e6bc b4fc 94be bf7b 6e3c
000001d0: 06fc 053c 2ce1 803d 7fa1 b7bc 2623 e33c
000001e0: 7bd6 0c3c 7ed5 84bd 39b7 e53c f0a0 6b3d
000001f0: 4cf8 843c 47ee 563d 82f3 84bd 40c0 c7bc
00000200: d5b0 0cbd 43f5 84bd a401 453c d1db 4d3d
00000210: 68b0 f4bd 89aa 8ebe 3bdf 0ebc 2804 0c3e
00000220: f897 debd b09d 913d 3a49 4bbe a22e 78bc
00000230: 016d 3c3c 77a3 2c3d 1215 013e 9604 723d
00000240: 9b44 8dbd 2422 013e b5c0 613d aae3 213e
00000250: df12 04bc 88fa 983d e4dc b83d 59da 343e
00000260: e2b1 313d ea19 d3bd 8d40 bfbd 4ee3 553d
00000270: b461 44be 63c4 203d e34d 353d 1817 973d
00000280: 1117 43bd c9f1 a73d 72ad 953d 427b 93bd
00000290: 7039 3a3c 5606 4ebd b61b 8a3d 2fd7 0a3e
000002a0: da80 e33c 0068 4cbd f539 283e d846 413d
000002b0: 16d0 953d 58a2 05bd 11a8 1a3e f386 a73d
000002c0: 261d b73d 3bc6 d13d 2f33 13be eb86 2dbe
000002d0: 30c8 cb3d 1b2a c9bc 9937 f73d b5ca 0bbe
000002e0: 1917 4e3d d0b8 6abd f259 2bbe 0be0 c13d
000002f0: 0d89 33be c773 09bd 4fca 9c3d 995f 623d
00000300: 008f 513d 2a76 893d 9d97 f93d 65df 04be
00000310: 01bb 17bd b5eb 033d c9ec a2bd 90db 7f3c
00000320: 9ce8 d63d fe7c 413d d048 d1bc 6a8f d3bc
00000330: 5b8a 753d 11ee 93bd 19e2 903d a1a3 943d
00000340: fa67 9a3c 6211 18bd d258 17bc e2e6 073d
00000350: e962 343d 93a9 9cba c5f2 7c3c ad95 cb3d
00000360: 68b0 81be 0cf3 a4ba 189a 083c 7278 a8bd
00000370: e2e0 073c 804e 993d 3d0e b8bb 239e f7bd
00000380: d495 063e ce23 13bd 001d a63d 29c3 3f3d
00000390: adc3 15be 44b1 873d 32ca debb 25e4 093d
000003a0: b529 08bc 8b10 dabb 5146 41bc 07c9 13bd
000003b0: f91e 4dbe f496 ac3b 6654 f83c 5516 63bd
000003c0: b65a 953b d681 0bbd 814a 23bb 9ad4 0f3d
000003d0: bde9 d5bd 1c7a 30bd 5bcd 0f3d 5804 123e
000003e0: 82c4 eb3d 38da 143d 5882 a03c 2702 cc3d
000003f0: c295 843d 569a d1bb bc00 54bd 7c3f 8dbd
-0.118737504 -0.034173355 0.073731944 -0.092559844 0.02151324 -0.064696945 0.014601895 0.0027751576
0.01227078 0.32836887 0.07776249 -0.20639649 -0.008454133 -0.058073375 0.022111228 -0.0185881
-0.10455428 0.018178925 0.18150333 0.06565123 0.033594757 -0.0075545893 -0.050599903 -0.2232855
-0.06885767 -0.09129244 -0.051387027 0.049095806 0.015050473 0.020369602 -0.006031282 -0.21224932
0.09441968 0.0015288565 0.048365787 0.051274877 -0.049886566 -0.1297661 0.0412678 0.091720656
-0.2037275 0.13629328 0.032185387 0.1259715 0.14084455 0.07296058 0.07849322 -0.09598601
-0.0043564523 -0.010871583 -0.028092125 -0.019504033 -0.07916942 0.11808768 0.033155363 -0.15061715
0.019275162 0.04877086 0.052948963 0.0006086237 0.053657405 -0.004789358 -0.009727992 0.14732228
-0.15753445 0.0612894 0.008636809 -0.100525156 0.02224105 0.07168472 -0.21960714 -0.23383576
0.028959578 -0.051127277 0.07500271 0.026070623 0.035575017 -0.014382342 0.05230414 -0.09291551
-0.09165679 -0.013976303 -0.072142154 0.08093111 0.009926376 0.006545133 -0.18041997 -0.0420341
-0.23451588 0.005960343 0.06477184 0.012394371 -0.33045012 0.1491746 -0.0023542647 -0.028667206
0.06012763 -0.11762066 -0.30026042 -0.058751125 0.074662186 0.056508664 -0.004373479 -0.0061358367
-0.14179263 0.18219917 0.062184133 -0.026775092 0.032855846 -0.083091125 -0.010800184 -0.027427007
0.06584071 -0.028104914 -0.29099047 0.014555871 0.008177763 0.06292948 -0.022415875 0.027726721
0.008596058 -0.06486033 0.028041469 0.05752653 0.016231678 0.052473333 -0.06491758 -0.024383664
-0.034348328 -0.064920925 0.012024317 0.05025846 -0.11947709 -0.27864483 -0.0087202145 0.1367346
-0.108688295 0.07110155 -0.19852152 -0.015147837 0.011500598 0.04214808 0.12605694 0.059086405
-0.06897851 0.1261068 0.05511542 0.15809503 -0.00806114 0.0746966 0.090265065 0.17661418
0.043382533 -0.10307677 -0.09338484 0.052218728 -0.19177896 0.03924979 0.04426373 0.07377452
-0.04762942 0.08200414 0.07308473 -0.07201244 0.011366233 -0.05029901 0.06743567 0.13558649
0.027771402 -0.04990387 0.16428359 0.047186702 0.0731508 -0.032625526 0.15103175 0.081800364
0.089411065 0.102428876 -0.14374994 -0.16945998 0.09950292 -0.02455621 0.12071151 -0.13651545
0.050314996 -0.057305157 -0.1673353 0.09466561 -0.1753275 -0.03355768 0.07655775 0.05526695
0.051161766 0.06711991 0.12187121 -0.12975843 -0.037043575 0.03220721 -0.079553194 0.015616313
0.104935855 0.047238342 -0.025547415 -0.025825221 0.0599464 -0.07223142 0.07074375 0.07257772
0.018848408 -0.037125953 -0.009237485 0.03317917 0.04403964 -0.0011952393 0.01543874 0.09940658
-0.253299 -0.0012584641 0.00833752 -0.08226098 0.008293362 0.07485676 -0.0056169317 -0.12090709
0.13143092 -0.035922818 0.08111 0.04681698 -0.14625426 0.066256076 -0.006799006 0.03366484
-0.008310725 -0.006654804 -0.01179655 -0.036080386 -0.20031346 0.0052670185 0.030313682 -0.05544122
0.0045579327 -0.034059368 -0.0024916234 0.035114862 -0.10444973 -0.043085203 0.03510795 0.1425947
0.1151209 0.036340922 0.019593403 0.09961348 0.064738765 -0.006396572 -0.051758513 -0.06896874

fc2.bias f4 [128]
00000000: e797 543d cacd 0d3d 58b1 3f3d 4ef1 203e
00000010: 4159 4e3d 8dbe 7e3d 4ebf 7c3c dc16 bb3d
00000020: e61a 333d 1147 db3c 0ccd 1d3d a7de 0f3e
00000030: 9aa0 a53d 8438 0a3e 8b1a 65bc 1a7f 0d3e
00000040: dc47 a23d 0ea0 92bc 084b ce3d e1ec 893c
00000050: 9d79 e7bc f0b4 9d3d d347 0c3e 0786 83bd
00000060: ef8e dabb a890 663d 9a27 0b3d 4b89 cb3d
00000070: d16f 97bc 1040 593d 00e5 b53c 6596 6e3d
00000080: 1b4c 5dbc 8813 f03b a6c4 b9bd 92ca 1f3d
00000090: 9fd9 913d 728b 2a3d d323 bfbc c494 af3d
000000a0: 7e0a b73d 505a 3b3d fc7b b9bb 78c8 b6b9
000000b0: c042 cb3d 899f a8bd a936 bd3d 7533 95bd
000000c0: 6813 1e3e 5229 a83d 9ad1 a93d fe3e 4c3d
000000d0: b314 453e de17 22bc 3ee5 ea3d 1487 21bd
000000e0: 9275 8fbd 637e 83bd 8fa1 dc3b 45c5 453d
000000f0: 135e 833c 000e 13bd 6976 babc 4c01 c13d
00000100: a15b 883d ceb4 593d ec4a 99bc b9ea 3a3e
00000110: c7d3 0b3d 7da4 0d3e f922 9ebd 4fec e5bb
00000120: e005 a0bc 772f 95bc 735a cc3d 56d4 843d
00000130: 9ded 9c3c 7803 a9bc 6f00 193d 453c 8f3d
00000140: 0223 133e 171f 83bc d9d8 d0ba c595 913b
00000150: f87b b73d 683c 9a3c 28fc 17bc 9266 83bd
00000160: ba57 2b3d 6a38 3e3d 7d59 183d 3085 573d
00000170: 924e c9bc a56f 433d f278 403e a216 d9bd
00000180: b9f0 823d 2f43 5d3d 4c4a 773d e736 ff3d
00000190: baec 173d e80f b5bd 92d7 483d fea7 683d
000001a0: dbf3 f1bc c0b8 ea3d 3c06 0d3d 52d3 0abe
000001b0: bbd2 d93c 77b6 3ebd 49bc c139 129e a63d
000001c0: b300 57bd 529b 313e 2885 2dbd fb5d 023d
000001d0: 2a91 11bd 5885 9d3d b89a 0f3e 25c4 cb3c
000001e0: 3f89 d03d 751c af3d a843 aebd 5440 0abd
000001f0: 7730 0e3e 0cd0 023c a154 963d 7cac ef3c
0.051902678 0.034620084 0.046799988 0.1571705 0.050378088 0.062193442 0.01542647 0.091352195
0.043726824 0.026767286 0.038525626 0.14049779 0.08087273 0.13498122 -0.013983379 0.13818017
0.07923862 -0.017898586 0.10072905 0.016836585 -0.028256232 0.07700527 0.13699274 -0.06422048
-0.006669871 0.0562903 0.033973314 0.09938296 -0.018485935 0.05303961 0.022203922 0.058248896
-0.0135069145 0.007326547 -0.09070711 0.039011545 0.07121586 0.04163689 -0.023332512 0.08573297
0.08937548 0.045740426 -0.005660532 -0.00034863106 0.09924841 -0.08233554 0.09238941 -0.07285205
0.1543709 0.08211006 0.082919315 0.04986476 0.19246177 -0.009893386 0.11469506 -0.03943546
-0.07004847 -0.06420591 0.0067331265 0.048283834 0.016036069 -0.035902023 -0.02276154 0.094240755
0.06658102 0.053150944 -0.018712483 0.18253602 0.034137513 0.13832279 -0.07721514 -0.0070166956
-0.019534051 -0.01821111 0.09978189 0.06485812 0.019156272 -0.020631537 0.03735393 0.069939174
0.14368823 -0.016006036 -0.0015933766 0.0044429027 0.08959192 0.018827632 -0.009276427 -0.06416048
0.04183171 0.04644052 0.037194718 0.052617252 -0.024573598 0.047713894 0.18796137 -0.1060002
0.063935705 0.05401915 0.06037359 0.12461644 0.037090994 -0.088409245 0.04903371 0.056800835
-0.029535225 0.114610195 0.034429774 -0.13557175 0.026589742 -0.04656073 0.00036952112 0.08135618
-0.0524909 0.17344406 -0.042363316 0.031827908 -0.03553883 0.07691449 0.14023864 0.024873802
0.101824276 0.085503496 -0.08508998 -0.033752754 0.13885675 0.007984173 0.073403604 0.029257052

fc3.weight f4 [10, 128]
00000000: bf13 843d d6a5 ef3d 3792 d2bd aa5c 49be
00000010: d03c 3e3d 2bb6 80be 2250 31be 2550 0a3e
00000020: fe7f 0ebd 1b45 f33d f8c4 443e 3b62 d9bd
00000030: a476 093e d689 d0bd 5f9a c53c 1ba9 0e3e
00000040: 0a75 ca3d 089c 4cbe 4c16 b6be a74f 22be
00000050: e3d7 523e 4834 883d f6fe 20be 0df0 86bd
00000060: bfa7 17bd 4904 1abe 139f df3d 09c7 793d
00000070: a14c 65be f712 f7bc 3f9e 1abe e241 d73d
00000080: b378 10be ad63 c43b 25fd d33d b166 89be
00000090: 5b0f 3a3e d05b 85be 5fd8 4f3e 4e95 67bd
000000a0: 053d f73d dc83 7fbe e72f ce3d 64b1 2cbe
000000b0: 6e27 2fbd ae8a 52bd 9648 9ebe f4ed e3bc
000000c0: 1bac 2abe 543f 40be c5ba 323c 4af7 08be
000000d0: 9981 8cbd fe1b 103e 2faa deba 999e 3cbe
000000e0: acc5 3d3c 01e0 973e 61fb 22be 082f 8d3d
000000f0: 5f4d 1b3e 342a b1bd 7d5b 92be 31ed 95bd
00000100: cdce aa3d 7ecd 11be a164 7cba 2e98 393b
00000110: 9731 8d3c b7c7 1bbe e2b4 733c 6e21 993d
00000120: 937d fc3c 029e 31bd 826f 323e cde8 0abe
00000130: 6425 b6bd b297 2a3e fa08 823d 1d25 80bd
00000140: 630d 52bd e773 513d 5773 6fbe 88f2 d1bd
00000150: 82ac 763d 29d8 19bd 7874 cd3b f2da a9bc
00000160: 07fe 0abe a0bc 32be 40c7 0f3e 935d c73d
00000170: 45f0 80bd da9d b1bd b267 d33d 3836 8f3d
00000180: 6f7c 49be 590e 3abd 480d 7a3c 3c8c efbd
00000190: 9da1 bc3d 9468 36bd 0fa7 803d f312 b6be
000001a0: 09b9 073d 1c1e 97bd c86f b83d 2824 32be
000001b0: a061 5e3d 0ec4 54bb 0a4d 89bd 9d50 38bd
000001c0: 4e47 5fbe 7588 bb3d 6337 5dbd 91f7 0abc
000001d0: b621 6bbd 6906 2c3d 86b0 2dbe dec1 68be
000001e0: 535c 263d 4660 82bd eb17 e43d 46bb e93d
000001f0: 83f8 92be 57f6 553e 5ae4 09be 6aeb 2b3e
00000200: babc 0dbe a885 7cbe e901 34be ec5a a43d
00000210: 2411 30be df2c 73bd d192 c23d 89e9 25be
00000220: b300 d6bc c207 41bd 743e d9bd a45f 93bd
00000230: ec41 013e 132d 82be 9de6 51be 8871 1f3e
00000240: e14e 6dbe 4a88 2a3d 1a21 223e dcd3 44be
00000250: 2fea dfbc 5c09 3cbe 5ad9 bebc 544c d6bc
00000260: b887 103e 67ed 12be 1abd 51be 1ac7 54be
00000270: d41c f93d 9971 363e 84ca aebd d9b9 1dbe
00000280: 9067 0b3e 5d5b 13be 5eb8 bc3d ce3c 4e3e
00000290: 6fcc dbbd a305 8d3d 3673 a13d bc04 e2bc
000002a0: b859 0fbe feee 5a3d ef11 1fbd 33df a83a
000002b0: aa87 293e 15f8 a0bd fcfa 013e 3084 193d
000002c0: ac34 76be d679 013c 4b4f 70bd 4ebb 62bd
000002d0: 3972 2dbe e307 76be e2cf 113e 4f7b 72bd
000002e0: a8dc 973d 90a0 bdbe 4671 583d f8c6 be3d
000002f0: d6a5 633e c1a5 ce3d 5777 253e e24d 9ebe
00000300: cd7f ac3d 127e a83d 94e1 7bbd b004 37be
00000310: cc56 083e a8b8 a8bb e006 1a3d 5eca cabc
00000320: e06e a3bd c2bf aabd 6fa0 9fbd 9466 33be
00000330: 1aec 7bbb b4f4 873d e968 a4bd 9a31 5b3d
00000340: 943b a5bc 5b1b fa3c c8a8 7e3d 7e75 803e
00000350: eb2b 5dbd 9c4b 043e 6b42 203e a05c cebd
00000360: 1649 093e 31ab 043e afba 31bc af63 33be
00000370: 6f95 06be 9b0e 173d 1c7d 793d 499f 2c3e
00000380: 30cf 0bbe 69b1 4c3d 736a 083d 1c21 8abd
00000390: 9a42 183e 3814 2f3e 9bfa 84bd 7817 0c3e
000003a0: f339 b43c d52e 25be 12b6 99be 4d4c ef3d
000003b0: af48 1e3e 6327 95bd 3ee0 f83c c4e6 b2bd
000003c0: 4f75 0c3e 871e 6abe 5460 1a3b 5a12 ea3d
000003d0: 59e8 443b c346 86be 2168 aabe a193 bf3d
000003e0: 6fec 29bd db3e df3d 7035 04be bfb2 9cbc
000003f0: 4ea5 04be 2927 d3bd dcc1 773e 945f a6bd
0.06449079 0.117015526 -0.102817945 -0.19664255 0.046444714 -0.25138983 -0.17315724 0.13507135
-0.03479003 0.11878415 0.19215763 -0.10614439 0.13424164 -0.1018254 0.024121461 0.13931696
0.09885605 -0.19981396 -0.35563886 -0.15850697 0.20590167 0.06650597 -0.1572226 -0.06588755
-0.03702521 -0.15040697 0.10919013 0.06098083 -0.22392513 -0.03016041 -0.15099429 0.10510613
-0.14108543 0.0059933276 0.10351018 -0.2683616 0.1816992 -0.2604661 0.20297383 -0.056538872
0.120721854 -0.24952644 0.100677304 -0.16864544 -0.042762212 -0.051401787 -0.30914754 -0.027823426
-0.16667216 -0.18774158 0.010908787 -0.13375583 -0.06860656 0.14073178 -0.0016987975 -0.18419875
0.011582773 0.2966309 -0.15916206 0.06893736 0.15166233 -0.08650628 -0.28585425 -0.07320631
0.08340225 -0.14238545 -0.0009628032 0.0028319466 0.01723556 -0.15212904 0.014874669 0.07477079
0.030821597 -0.04336358 0.1742535 -0.13565369 -0.088938504 0.1665943 0.063493684 -0.06257079
-0.051282298 0.051135924 -0.23383842 -0.10251337 0.06022311 -0.037559662 0.0062699877 -0.020734284
-0.13573466 -0.17454767 0.14040852 0.09734645 -0.06295828 -0.08672686 0.10322513 0.06992763
-0.19676374 -0.04542384 0.015261956 -0.116966695 0.09210513 -0.044533327 0.06281864 -0.35561332
0.033135448 -0.0737879 0.090056956 -0.17396605 0.05429232 -0.003246549 -0.06704147 -0.044998754
-0.21804544 0.091568865 -0.0540079 -0.008481876 -0.057405196 0.0419983 -0.1696187 -0.22730204
0.04061539 -0.06366019 0.111373745 0.11412673 -0.28705224 0.20894752 -0.13466015 0.16789022
-0.13841525 -0.24660361 -0.17578854 0.080251545 -0.17194039 -0.059368964 0.09500659 -0.16202368
-0.02612338 -0.04712654 -0.10607615 -0.071959764 0.12622803 -0.25425014 -0.20498128 0.15570652
-0.23174621 0.04163388 0.1583294 -0.19221443 -0.027333347 -0.18362945 -0.023297 -0.026159443
0.14114273 -0.14348374 -0.20482293 -0.20779076 0.12163702 0.17816772 -0.085347205 -0.15402927
0.13613725 -0.14390321 0.09214853 0.20140383 -0.10732352 0.06885841 0.07883303 -0.027590148
-0.13999069 0.053450577 -0.038835462 0.0012883901 0.16555658 -0.07859818 0.12693399 0.03747958
-0.2404353 0.007902583 -0.05866937 -0.05535441 -0.16938104 -0.24026446 0.14239457 -0.059199627
0.07415134 -0.37036562 0.0528424 0.09315294 0.2223123 0.10090209 0.16158806 -0.30918795
0.084228136 0.08227171 -0.061494425 -0.17872882 0.1331436 -0.005148966 0.037604213 -0.0247547
-0.07980132 -0.08337356 -0.07794272 -0.17519599 -0.0038440288 0.0663847 -0.080278225 0.0535141
-0.02017001 0.030530622 0.06217268 0.2508964 -0.05399696 0.12919468 0.15650336 -0.100762606
0.13406786 0.1295593 -0.0108477315 -0.17518495 -0.13142942 0.036879163 0.06091033 0.16857637
-0.13653255 0.04997388 0.033304643 -0.06744596 0.14869156 0.17097557 -0.06493112 0.13680828
0.022000289 -0.16131146 -0.3002172 0.11684475 0.15457414 -0.07282903 0.030380365 -0.08735421
0.13716625 -0.22863208 0.0023555951 0.114292815 0.0030045717 -0.26225862 -0.3328257 0.0935433
-0.041485246 0.109006606 -0.1291101 -0.019128202 -0.12953684 -0.103102036 0.24195045 -0.08123699

fc3.bias f4 [10]
00000000: 9327 593c 9669 bdbd 4197 6a3d d496 1fbd
00000010: fb2b 66bd caa7 973d ea81 2d3d 0fa3 f1bd
00000020: 9fd2 f43d b076 da3d
0.013254064 -0.092486545 0.057273153 -0.0389622 -0.056194287 0.0740505 0.042360224 -0.11798679
0.11954235 0.10667169
