03-blog-experiments/saved_models/mnist_model_fp32.pth (torch, 943681 bytes, 6 tensors)

fc1.weight f4 [256, 784]
000000 c0 3a 37 ba 60 6c c0 3a ba be fb bc 40 9b 8d 3b
       -0.00069896504 0.0014680736 -0.030730594 0.0043214858
000010 10 87 8c 3b 1b 2a 0b 3d 12 1c 8e 3c 7e d3 e5 3c
       0.0042885616 0.0339757 0.01734737 0.028054949
000020 24 99 a5 bb 96 7a 9c 3c 88 b6 b0 3b 1e c6 e0 3c
       -0.005053656 0.019101422 0.005392853 0.02743822
000030 88 c3 ec 3c 2e ba bf 3b db 70 14 3c 3b b5 16 bc
       0.02890183 0.005851052 0.00906011 -0.009198482
000040 58 1c 53 bc fe 02 00 bd a4 a8 a7 bb 54 8a f3 bb
       -0.012885176 -0.031252854 -0.005116539 -0.0074322615
000050 82 1b 05 bd c0 55 b6 3b a5 c1 f8 bc 9c b1 0d 3c
       -0.032496937 0.0055644214 -0.030365774 0.008648302
000060 c2 b0 ac 3c d8 5a 0d bc 5e 0a b7 bc 0a 63 96 3c
       0.021080378 -0.008627616 -0.02234381 0.018357772
000070 f3 b0 8e bc ae 21 c0 bc fc b9 5d 3c c4 ae 0e 3c
       -0.01741836 -0.02345356 0.013533112 0.00870866
000080 2e fe a6 bb d2 13 23 3d 5e 11 6d 3d 51 86 12 3c
       -0.0050962185 0.039813824 0.05787789 0.008943156
000090 e1 46 01 3b 7b 1c 4b 3d de 4d 3c 3d 57 96 cc bc
       0.0019726085 0.049587708 0.045972697 -0.024974031
0000a0 1c c6 71 3d f2 63 22 3d 0a 26 a9 bb 5d c4 39 bd
       0.059026822 0.039646097 -0.0051620053 -0.045353282
0000b0 24 03 8c bc c7 5c 5f 3a 6c 50 8d 3d f9 3e 6e 3d
       -0.017091341 0.00085206 0.06900105 0.058165524
0000c0 cd 28 60 3c 3c 90 63 3d 6c 34 ff 3c e5 6e 74 3a
       0.013681603 0.055557474 0.031152926 0.0009324386
0000d0 0a 59 d5 3c ec 0a ba 3c 7a b1 d5 bc b3 e0 09 bd
       0.026043434 0.022710286 -0.026085604 -0.033661555
0000e0 18 bd b5 bc 58 4c 09 bc 89 29 ab bc ea 69 0a 3b
       -0.022184893 -0.008380018 -0.020893829 0.0021120259
0000f0 5b 9a c1 3c 60 ce 27 3d dd e5 86 3d 92 66 41 3d
       0.023633173 0.0409683 0.06586812 0.04721696
000100 c8 a8 20 3e b1 be a7 3d fa ae c0 3d 96 c9 c8 3d
       0.15689385 0.081906684 0.09408374 0.098040745
000110 43 4e b9 3d 38 f8 24 bb a1 e6 16 3e 67 3b 53 3c
       0.0904813 -0.0025172364 0.14736415 0.012892581
000120 05 05 38 3d 80 24 dd 3d 7e 46 ac 3d f4 5a 98 bc
       0.044926662 0.107979774 0.08411883 -0.018598057
000130 d3 39 1e 3d 65 62 87 3d f2 9c d2 3d 95 e1 65 3d
       0.038629364 0.06610564 0.10283841 0.056123335
000140 d2 0e 01 3d 58 d1 0c bc fb 00 04 3d 60 59 0f 3c
       0.031508274 -0.008594833 0.032227498 0.008749336
000150 d0 fb 65 bb 8a e0 0e bd 1d aa de bd 7f e7 15 bd
       -0.003509272 -0.034882106 -0.1087229 -0.036597725
000160 fa 54 19 3d b1 31 e3 3d 31 9c 15 3e da 9f d1 3d
       0.037434556 0.11093462 0.14610364 0.102355674
000170 26 11 31 3e ca f6 b1 3d 30 f8 ba 3d 23 41 32 3e
       0.17291698 0.086896494 0.09129369 0.1740766
000180 c1 48 06 3e df fd 79 3d a0 e0 d3 3d 77 2d da 3d
       0.13113691 0.061033126 0.10345578 0.10653203
000190 70 5c f1 3c a4 2f 51 3d 96 f1 3e 3d a5 55 d5 bc
       0.029463023 0.051070824 0.046617113 -0.026041815
0001a0 64 f1 0b bd a1 2b e6 3d 31 af 9d 3d b9 39 07 3e
       -0.034165755 0.1123879 0.07699431 0.13205613
0001b0 4d 4f 6d 3d 11 76 c7 bd 2c 71 8a bd 82 a1 a8 3c
       0.057936955 -0.09739316 -0.06759867 0.020584825
0001c0 80 16 2f 3a 72 fd 82 bb e5 93 00 be c6 81 75 bd
       0.0006679073 -0.003997498 -0.12556417 -0.059938215
0001d0 ed 78 ae 3c ff 37 94 ba 88 ab 6c 3d c3 92 f1 3d
       0.021297896 -0.0011308192 0.057780772 0.11795571
0001e0 7c 55 23 3c 3e 27 85 bb 42 d6 d4 3d 4e 8e cb 3d
       0.0099691115 -0.004063516 0.10392429 0.09939252
0001f0 73 57 66 3d 1d d0 4a bd 8c 8a 04 3d 7f 37 8f bd
       0.05623574 -0.04951488 0.03235869 -0.06993007
000200 83 eb 1e 3d 79 1f a1 3c b2 48 80 bd 34 a0 83 3c
       0.03879882 0.019668328 -0.062638655 0.016067602
000210 01 5f 9f 3c b2 93 36 3e 13 04 f9 3d 7f c9 25 3e
       0.019454481 0.17829779 0.1215898 0.16190146
000220 21 65 e2 3d 3f 24 ce bb 2e da 09 bc b9 cd 0e 3e
       0.11054445 -0.006290942 -0.0084138345 0.13945664
000230 4a b3 04 bd 3c bc 59 bc e2 dc 39 bd ed a3 1e bc
       -0.032397546 -0.0132895075 -0.045376666 -0.009682638
000240 99 e2 25 bd 7c 2f cf bd 57 80 24 3d 31 a3 ef 3c
       -0.040499303 -0.10116479 0.040161457 0.02925262
000250 39 d4 fe bd 79 be f2 bd 06 61 95 3c 0a 7a 86 3d
       -0.12442822 -0.11852736 0.018234741 0.06566246
000260 7c 81 49 3d 66 0b b5 3b 16 27 56 bd 76 c0 45 bd
       0.04919575 0.0055250404 -0.05228337 -0.04827925
000270 5f fb 10 bd 8a 2b 1b 3d c4 1e 4c bd 7b 15 a2 ba
       -0.035395976 0.03788332 -0.049834028 -0.0012366021
000280 ff b0 f8 3d 26 cd f1 3d ed a2 8f 3d 70 9b f5 3c
       0.12143134 0.11806707 0.070134975 0.029981345
000290 20 c9 d1 3d ca e7 85 3d 6e 51 32 3e a7 0a 2f 3e
       0.1024344 0.06538351 0.17413875 0.17093907
0002a0 54 74 42 3c 30 13 8e 3d 3f b9 d0 3c 97 28 6f bd
       0.011868555 0.069372535 0.025478957 -0.05838832
0002b0 8a fe 94 3a e8 e7 e6 bc 02 24 62 3d 60 99 11 3d
       0.0011367362 -0.028186753 0.05521012 0.03554666
0002c0 47 d5 4a 3d 04 fd 5d 3b 0d 28 c0 bc 94 60 e2 3b
       0.049519803 0.0033872733 -0.023456598 0.0069084857
0002d0 f3 b7 29 3d 7c cd 79 bd 22 26 8b bc da ca 81 bd
       0.041435193 -0.06098698 -0.016985957 -0.06337519
0002e0 c3 a5 f2 bd ee 47 9b bd 59 59 c8 bd 20 ef 97 bd
       -0.11848023 -0.07582079 -0.09782667 -0.07418656
0002f0 a0 f8 fc bb 36 f5 23 bd 60 6a 95 3c ff cf a5 3d
       -0.007720068 -0.040028773 0.0182392 0.08096313
000300 df 0b 31 3e c8 40 73 3e 97 83 c4 3d 9f f6 45 3d
       0.17289685 0.23755181 0.09595411 0.0483309
000310 60 49 71 bb 7c 5c 18 bc e8 ac 11 3b 46 55 04 be
       -0.0036817417 -0.009299394 0.0022228304 -0.12923154
000320 39 29 c3 3d ce 41 a0 3d e9 31 cb bc cc cc 92 bc
       0.09529347 0.07825051 -0.024804072 -0.01791992
000330 62 0d b8 3d 1a d9 54 bc e8 1f 20 3d 80 b2 92 3c
       0.089869276 -0.012991214 0.03909293 0.017907381
000340 c9 45 f3 3b 71 84 92 bd 90 23 94 bc eb 5b 28 bd
       0.0074240905 -0.071541674 -0.018083364 -0.041103285
000350 5f 23 a7 bd 56 48 f8 bd fb 8c d7 bd 0c ff fa bd
       -0.081610434 -0.12123172 -0.10524937 -0.122556776
000360 95 00 a4 bd cc 31 83 3c d3 46 89 3b 29 6c 5e 3d
       -0.080079235 0.016014956 0.004189351 0.05430237
000370 41 6d b8 3d af a6 75 3d 62 22 b1 3d 73 8e 86 3d
       0.090052135 0.059973415 0.08649136 0.06570139
000380 72 15 a1 3c f1 0f 2e bd 78 e7 95 3d 52 29 95 3d
       0.019663546 -0.04249567 0.0731954 0.07283272
000390 a8 2d dc 3d 70 00 09 bd 81 96 0a bd d1 00 78 bd
       0.10750896 -0.033447683 -0.033834938 -0.060547654
0003a0 e3 98 29 bd 4b 21 84 bd 8a e1 cb bd d1 1d c7 bb
       -0.04140557 -0.06451663 -0.099551275 -0.0060765524
0003b0 89 5e 2e bd ed c7 3f bd 60 f3 f6 bb 9f a7 08 bd
       -0.042570625 -0.046821523 -0.007536337 -0.03336298
0003c0 13 7b 6e bc 6d fe 05 be ed d6 3e bd db e5 16 bd
       -0.01455571 -0.13085337 -0.046591688 -0.0368403
0003d0 16 e4 2b bd 37 35 49 3d e9 56 a7 bd d0 82 15 3c
       -0.041965567 0.049123015 -0.08170874 0.009125426
0003e0 26 a2 70 3d 6a 46 51 3d 58 2a 5b 3d 7e 6c 84 3d
       0.058748387 0.051092543 0.05350718 0.06466006
0003f0 0f f7 a3 3a 0c 3f b1 bd 64 aa cb 3d 7f 40 b8 3d
       0.0012509542 -0.08654603 0.09944609 0.08996677

fc1.bias f4 [256]
000000 a9 b6 a4 3d cc 7f b2 bc 41 12 82 3a d7 c8 1b bd
       0.08042652 -0.021789454 0.0009923653 -0.038033333
000010 5a e6 22 3d 86 30 89 3c 50 01 92 3d eb 22 1e bc
       0.03977046 0.01674677 0.071291566 -0.00965188
000020 b6 7d e2 ba ef 6a 89 3c 86 da 31 3a ea e9 66 3d
       -0.0017279896 0.016774623 0.00067845767 0.05637542
000030 87 ea 52 bc 6e 21 b0 bd 6b 74 1f bd 9c da 1a bd
       -0.0128732985 -0.08600126 -0.038929384 -0.03780614
000040 e6 2d 2f 3d 6c 9f 0d bb c3 18 51 3d 79 57 dc 3c
       0.04276838 -0.0021609915 0.051049005 0.026897179
000050 69 d3 95 3d 4a 8a bd 3d 20 1b 8b 3c b0 9b 20 bd
       0.07315714 0.09254892 0.016980708 -0.039210975
000060 b2 ce 13 3d 2e e0 0c 3d 08 c8 a2 3d 4b 60 9a 3d
       0.036085792 0.034393482 0.07948309 0.07537898
000070 4e 76 74 3d 05 b9 77 bd e1 24 1b 3d e2 e6 9b 3d
       0.059683137 -0.060479183 0.037876967 0.07612397
000080 50 8a 31 bd 10 f1 e9 3d 51 75 cc bd d0 d0 9f 3d
       -0.043344796 0.11422932 -0.09983314 0.078035
000090 28 85 e8 3c 32 1b 53 3e 46 79 86 bb a1 23 da 3c
       0.028383806 0.20615843 -0.0041038124 0.026628317
0000a0 23 f9 70 3d 06 f9 dc bc c6 f4 37 ba 06 bd 4c 3d
       0.058831345 -0.026974212 -0.000701737 0.049984954
0000b0 ad 71 7f 3b 13 39 13 3b 8a 24 86 3c 27 6e da bc
       0.0038977668 0.0022464439 0.016374845 -0.026663853
0000c0 c8 f8 c2 3d 7e fd c6 3d 12 ca db 3c 75 7b 08 3c
       0.095201075 0.097163185 0.026829753 0.008330216
0000d0 41 cb a1 3d d2 19 0f 3e 1b 20 51 bd c1 45 14 bd
       0.07900096 0.13974693 -0.05105601 -0.036199335
0000e0 01 36 81 3d 74 0d 8e 3d 41 e3 b1 3d e1 21 fc bc
       0.063091286 0.0693616 0.08685923 -0.030777873
0000f0 44 d4 7e bc 29 ff 8a bc 0c 0f 07 bd e0 22 29 3b
       -0.015553538 -0.016967373 -0.032973334 0.002580814
000100 ba 77 a7 3d 70 28 41 bd e2 e0 8c bd e8 f5 87 bc
       0.08177133 -0.047157705 -0.068788305 -0.01659675
000110 aa ec cc bc 0a ca 5f 3d f9 7c a5 3d c8 f0 ac bd
       -0.025015194 0.05463604 0.08080477 -0.08444363
000120 6c 96 fb 3c a0 25 9d 3c a2 42 17 3e 83 d3 ca 3d
       0.030711375 0.01918298 0.14771512 0.09903624
000130 3c 79 c8 3d 1e 5b 1d bd d4 ea 39 b9 66 6f 85 bd
       0.097887486 -0.038416974 -0.00017730455 -0.06515388
000140 61 4c 8a 3c 78 43 e1 3d 19 25 e5 3c c4 a1 6d bc
       0.016882123 0.10999197 0.027971791 -0.0145039
000150 96 95 84 3d aa ef ab 3d ed d5 4a bd 83 61 bf 3c
       0.06473844 0.08395322 -0.04952042 0.023361927
000160 d1 3a 4d 3d 29 17 ba 3d 00 f2 87 bb 9b 3a 59 3d
       0.05010492 0.09086449 -0.0041487217 0.053034406
000170 b6 15 c8 3d d4 a0 1a 3d 9c db 92 3d 79 65 31 3d
       0.09769766 0.037751034 0.071707934 0.043309662
000180 06 4e 71 3c 65 2e 08 3b 0f ac e2 bc 5b 64 63 3d
       0.014728075 0.0020779606 -0.027669935 0.05551563
000190 06 11 06 3c 72 6b b5 3d 51 79 70 bd 4f 09 16 bd
       0.00818277 0.08858384 -0.058709446 -0.03662997
0001a0 07 7f 2a 3d c7 70 48 3d 09 69 0c bd 12 9e f1 3d
       0.04162505 0.048935678 -0.034279857 0.11797728
0001b0 4f 78 0d 3d c0 9a 88 3d 4d 58 c9 bd 0f c6 bc 3d
       0.034538563 0.06670141 -0.09831295 0.09217464
0001c0 e1 09 9d 3c df 16 8f 3b 7e a3 ef bc c7 b3 38 3e
       0.01916975 0.00436674 -0.029252764 0.1803733
0001d0 d8 4e f2 3c 66 2d 3c 3d f3 42 45 bd 52 8e bf bc
       0.029578611 0.045941733 -0.04815955 -0.023383293
0001e0 66 3e db 3d b1 68 b6 3d d0 2d 1b 3d 75 90 98 bd
       0.10705261 0.08906687 0.037885487 -0.07449428
0001f0 45 13 0b bd 89 ad 9f 3d 1e 1c 43 bd 5a 05 a7 3b
       -0.033953924 0.07796771 -0.047634237 0.0050970735
000200 8f 1e 0b 3d 81 6c 50 3e d0 42 0b 3d 49 90 8c bc
       0.03396469 0.20353891 0.033999264 -0.017158644
000210 b8 38 83 bd 07 77 83 3d df 9f 04 3d 5d e8 17 bc
       -0.064073026 0.06419187 0.032379027 -0.009271708
000220 fa a5 0a 3e 03 bf 94 3b 90 70 1f 3d a9 92 f4 3d
       0.13539878 0.004539372 0.038925707 0.11942036
000230 3f 08 d5 3d 7b db 2b 3d 78 7b 46 3c ac 57 bf 3c
       0.104019634 0.04195736 0.012114398 0.023357235
000240 6d 03 8a bb c4 78 86 3d 9c f0 99 3d 1a 88 df bb
       -0.004211834 0.06566003 0.07516596 -0.0068216445
000250 26 88 7a bd ee 85 80 ba 1c 39 d8 bc bf 86 0c ba
       -0.061164998 -0.0009805539 -0.02639442 -0.0005360655
000260 5c 57 9f 3c db e1 c3 3b a9 d1 16 3d 30 ef ab bd
       0.019450836 0.005977852 0.03682104 -0.08395231
000270 5e 01 fa bc eb 4d 7f bd 30 ff 33 3d 32 05 ad 3d
       -0.03051823 -0.062330168 0.043944538 0.084482566
000280 c8 b4 92 3d 98 ae 0b bd 66 e0 ed 3c d1 4c 02 3e
       0.071633875 -0.034102052 0.029037666 0.12724616
000290 02 1b 76 3d c5 a0 5f bd 6e 56 57 bd 53 b6 e2 3c
       0.06008435 -0.05459668 -0.05257266 0.02767483
0002a0 2b a5 6d 3d bc 13 91 3d ab bf 09 bd 70 24 95 3c
       0.058018845 0.07083842 -0.033630054 0.018205851
0002b0 59 a4 ba 3d c8 4d 10 bc 79 38 da bc 59 9b f4 3d
       0.09113378 -0.008807607 -0.026638256 0.11943693
0002c0 f4 df c8 bb c5 78 92 3c 4e c0 11 bb d0 af 05 bd
       -0.006130213 0.017879853 -0.0022239867 -0.03263837
0002d0 44 b4 13 bd e7 11 92 bd e4 de 99 3d bf 58 a8 bd
       -0.036060587 -0.07132321 0.07513216 -0.08220052
0002e0 a5 43 d3 3c dc 73 83 3c 70 3f df 3d 9b a7 6f 3d
       0.025789091 0.016046457 0.109007716 0.05850945
0002f0 c8 ef 94 3d d7 2c 26 bd 94 93 19 3d cb 73 37 3d
       0.07272297 -0.040570106 0.037494257 0.044788163
000300 1d 91 ac 3d ae f5 ac bd a4 94 ef bc 94 b5 34 3d
       0.08426116 -0.08445297 -0.029245682 0.04411848
000310 ab 56 9d 3d 6d e8 03 3d 90 5b 61 3d 48 c2 2b 3d
       0.07682546 0.03220408 0.05501896 0.041933328
000320 f2 ae 08 bd 26 46 72 bb d4 33 14 3d 37 e3 59 3d
       -0.033369966 -0.0036968081 0.03618224 0.053195205
000330 fc e1 fe bd 7e 3e dc 3c 88 0f 9b 3d 2b 8d f2 bc
       -0.12445447 0.026885267 0.07571322 -0.02960833
000340 a8 e1 e6 3d 2b 39 d4 bd bd 39 10 3b 57 f7 c8 bc
       0.11273509 -0.103624664 0.002200707 -0.024532003
000350 cc 3d 14 bd d7 c4 65 bc 22 0f 03 3d e3 c1 fa bc
       -0.036191747 -0.014023981 0.031996854 -0.03061003
000360 36 9d 4c 3d 5e f7 59 bc 86 01 20 3d 76 a6 c0 3d
       0.049954616 -0.013303606 0.039063953 0.0940675
000370 61 7a f7 3a 5d 96 1f bd b1 77 95 bb e1 fc 0d 3d
       0.0018881076 -0.038961757 -0.0045613875 0.034664992
000380 08 50 59 bb 6d 8a 91 3c 64 75 b6 3d 85 14 34 3d
       -0.0033159275 0.017766202 0.08909109 0.04396488
000390 c1 61 11 bc 50 42 45 bd 14 bd be 3d b8 3c 3e bc
       -0.008873404 -0.048158944 0.093134075 -0.011611156
0003a0 09 5b 2c bd 38 ec c2 3d 89 da 98 3c 95 f2 57 3c
       -0.042079005 0.095177114 0.018658893 0.013180395
0003b0 6b 99 e9 3c e1 1d 00 3c c7 50 f0 bc 4b 51 a0 3d
       0.028515538 0.007819624 -0.029335393 0.078280054
0003c0 9a d7 60 3d 9d f5 04 bc e0 e2 3f bd 5f 2a cd 3d
       0.054893114 -0.008115199 -0.046847224 0.10017847
0003d0 9a 70 b3 3c ba 47 ec bc 51 d5 8a bd ce bb 0a be
       0.021904279 -0.028842796 -0.06778968 -0.13548204
0003e0 7c aa 87 bd f4 89 30 3d 16 46 53 3c b5 dd 86 bc
       -0.06624314 0.043100312 0.012895128 -0.01646314
0003f0 b3 e2 38 3d 7f 07 62 bc 7e 65 ad 3d 0b 58 9e bc
       0.045138072 -0.0137957325 0.08466624 -0.019329092

fc2.weight f4 [128, 256]
000000 da 59 b2 bc d2 f8 c3 3c 53 f6 f0 bc 44 f2 bc bd
       -0.02177136 0.023922358 -0.029414332 -0.09225896
000010 4c de 45 bd a0 40 84 3b bd d6 03 3e ce 40 5d bd
       -0.048307702 0.004036024 0.12874885 -0.05401688
000020 04 e5 e0 bd d1 7f 03 3b 98 85 fb 3d c5 64 85 bc
       -0.10981181 0.0020065198 0.1228134 -0.016283402
000030 52 2b c5 3c 68 1d 06 3e 56 35 0e 3b c0 39 c4 3d
       0.024068508 0.13097155 0.0021699271 0.095813274
000040 39 c1 be 3d 4b 60 3b be 59 6e 9c 3d 99 e6 75 bd
       0.09314198 -0.18298452 0.07638235 -0.06003437
000050 81 f7 17 3c 09 d4 c3 bb 5c f7 5f 3d bf f7 ee 3d
       0.009275318 -0.0059762043 0.05467926 0.116683476
000060 28 bd d5 bc b2 d1 1a 3d ac be 77 3d 8b 7a ac 3a
       -0.026091173 0.037797637 0.060484573 0.0013159079
000070 53 1d f2 3c 4b a7 4c be 7a 6f aa ba 74 30 00 3e
       0.029554999 -0.19985692 -0.0013003193 0.12518483
000080 20 5f 90 3d b6 17 ea 3d 3a fd 07 3e 35 ae 54 3d
       0.07049394 0.11430304 0.13280192 0.05192395
000090 81 27 88 bd c5 c6 b0 be d2 bb 48 3d 22 40 40 be
       -0.0664816 -0.3452665 0.049007244 -0.18774465
0000a0 83 c0 8a bc ab a9 94 3d ac 91 8f 3d 58 91 40 be
       -0.0169375 0.07258924 0.070102066 -0.18805444
0000b0 33 a2 c3 3c 78 2e c4 bd 83 5f 9a bd 0f 0f 90 bc
       0.023881054 -0.09579176 -0.07537749 -0.017585305
0000c0 af 9d b6 3c dc 42 26 3c 34 d7 f5 bd dc 11 69 3d
       0.022291986 0.010147776 -0.12003937 0.056901798
0000d0 73 f8 15 3d 08 94 dc 3a e8 20 d1 3d b2 30 7b bd
       0.036613893 0.0016828785 0.102113545 -0.061325736
0000e0 1a 2c e2 3c 0c 93 c5 3d 3e 92 63 bc 7f e4 4c 3d
       0.02760892 0.096471876 -0.013889847 0.0500226
0000f0 ba 70 40 3d d3 2a 38 3b b7 77 0d 3c f4 b3 30 bd
       0.046982504 0.0028101697 0.008634499 -0.043140367
000100 3f 61 9a 3d 35 6c dd 3d b5 2f 46 3d 07 86 29 bc
       0.075380795 0.108116545 0.04838534 -0.010346896
000110 72 69 45 3d 09 74 9d 3d 60 be a5 be 57 c6 2f be
       0.048196264 0.076881476 -0.32371807 -0.17165504
000120 39 24 a2 bd 5b 7a dd 3d 0e 53 2d 3d 71 0a 70 bd
       -0.07917065 0.10814353 0.042315535 -0.058603708
000130 b2 ed 52 3c c4 79 aa 3c 6e 51 34 be c2 6a b7 3c
       0.012874054 0.020810015 -0.17609188 0.022389773
000140 a5 91 cb bc 7c 6f 5c be 94 ef 4d 3d 45 a8 11 3e
       -0.024849722 -0.21526903 0.050277308 0.14224346
000150 43 59 04 be 93 1a 62 3d 3f 86 21 be b8 2d fb 3d
       -0.12924676 0.055201124 -0.15773867 0.122645795
000160 91 a8 a6 bc ce 4c ca bc 4a 2c 3c 3e f7 b7 1e 3e
       -0.02034405 -0.024694826 0.1837627 0.15499865
000170 53 26 2c 3b 8a 01 68 be e6 21 c5 bd 08 9f a8 3d
       0.002626796 -0.22656837 -0.09625606 0.08233458
000180 9b c4 2a 3d 26 50 24 3e 6a a6 bf 3b 17 23 b8 3d
       0.041691404 0.16046199 0.0058486955 0.08991068
000190 f9 6c 42 3d 9c 6b 62 3d 31 23 e6 be fa 3e a1 bc
       0.047467206 0.055278406 -0.44948724 -0.01968335
0001a0 08 81 eb 3d 1f 7e b7 bc da 89 cb 3c c7 42 60 bc
       0.1149922 -0.022399006 0.024846006 -0.013687796
0001b0 a8 0c ea bd c0 47 9d be 21 20 df 3d 66 9a 64 bc
       -0.11428195 -0.30718803 0.108948 -0.013952827
0001c0 b1 0c 15 be 48 00 ad 3d 27 f6 49 3d c3 7d a2 be
       -0.14555623 0.08447319 0.049307015 -0.31736574
0001d0 c5 72 ba 3d ed 05 27 be 49 9b 40 3e 08 87 94 3d
       0.09103922 -0.16310854 0.18809237 0.07252318
0001e0 05 93 3d 3b b4 3d e6 3d b4 a8 a9 be 2a 6a a9 3c
       0.0028926742 0.11242238 -0.33136523 0.020680506
0001f0 32 b2 bb bd 86 5f 4a be a2 db 08 be 9e 98 7d 3c
       -0.091648474 -0.19763002 -0.13365033 0.015478281
000200 97 02 e9 3d d7 0b 81 3b 00 5c 9f 3d 91 9f 40 3d
       0.11377447 0.003938179 0.077812195 0.047027174
000210 fa d3 78 3c 87 4f 18 3d 0e 5a 81 bd 69 d3 a8 bc
       0.015187258 0.03718522 -0.06316005 -0.02060862
000220 75 20 93 bd b1 cf 84 3e af 9c 58 3e 14 d6 24 3d
       -0.07183925 0.25939706 0.2115352 0.040243223
000230 40 ff b5 bc f6 7a a3 3d fe fd 25 3d a7 67 f4 bc
       -0.02221644 0.07982437 0.04052543 -0.029834582
000240 ae f5 73 3d 3d 4d ad 3c 42 a7 d6 3d a8 26 cb 3d
       0.05956047 0.021154994 0.10481121 0.099194825
000250 59 e4 fb 3d ad 1f 6d 3d 3c 46 75 bd 3b 21 24 3c
       0.12299413 0.057891537 -0.059881434 0.010017688
000260 cc c2 98 bd cd 39 d2 3d ef cd 03 be 15 6f 99 be
       -0.074590296 0.10264931 -0.12871526 -0.2996756
000270 2c 6e ae 3c b3 ee 25 3e e4 c8 bd 3d 1d 6e 05 3e
       0.021292768 0.16204338 0.092668325 0.13030286
000280 7e e3 a1 3c fa ea 35 be 54 ae fb bd 31 3a d6 3d
       0.019761797 -0.17765418 -0.1228911 0.10460318
000290 d8 27 1a be f6 43 9f 3d bb 4a fe bd 36 1c e5 3c
       -0.15054262 0.077766344 -0.124165975 0.027967554
0002a0 9f 0a dc 3d f6 85 48 be 7b dd 6f 3d b5 60 aa 3b
       0.10744213 -0.19582352 0.05856083 0.0051995167
0002b0 f6 31 c7 bc 3e 1c 17 bd 19 e8 22 3d 15 f7 4e 3d
       -0.024315815 -0.03689217 0.039772127 0.050528605
0002c0 7d ef bb 3d 9b aa a9 3d 80 b6 65 b6 cf e0 22 3e
       0.09176538 0.082844935 -3.4229888e-06 0.1590607
0002d0 17 26 69 3d 9e 0d 2c bb e3 65 05 3e 52 87 57 3e
       0.05692109 -0.0026253234 0.13027148 0.21047714
0002e0 96 be a3 3d 8c 83 e3 bc bc bf 62 be 71 6e 11 3d
       0.07995336 -0.027772687 -0.22143453 0.035505716
0002f0 bd d5 73 be 74 3f 53 3d a8 9b 2c be a9 fe 05 3d
       -0.23812003 0.051574185 -0.16856253 0.032713566
000300 97 73 66 3d 8e f7 95 3d 40 3f b2 3d 0c e2 93 3d
       0.05626258 0.07322608 0.0870347 0.072208494
000310 dc 2a bd 3d 1e bc 51 3d 49 59 79 bc 55 53 84 3d
       0.092366904 0.051204793 -0.015219041 0.06461207
000320 63 c7 0d bd 9e 0e 8a be 1e c6 b8 bd 02 b2 0c bd
       -0.034613978 -0.26964277 -0.09022163 -0.03434945
000330 ad 6a 9d 3a a1 56 e7 3d 66 ae 47 bc 2b 9a e2 bb
       0.0012009941 0.1129582 -0.012187576 -0.006915351
000340 73 cb b7 bb 08 b5 d2 bd ae ca de 3c a9 ac a4 bd
       -0.00560897 -0.10288435 0.027196255 -0.08040745
000350 8b ee 31 bd 3c ed 98 3c 95 9a b0 bd 97 fa 69 3c
       -0.043440383 0.01866781 -0.08623234 0.014280937
000360 4a 67 b0 3d 61 21 88 3e c3 ac 99 3d 1b 37 81 bd
       0.08613451 0.26587966 0.07503655 -0.06309339
000370 b9 43 bb 3d 4a 4b 81 3e 72 44 d1 3d 7c 2f 62 3d
       0.091437764 0.25252753 0.10218133 0.055221066
000380 33 23 6a bc fa 6a 54 3d 3d 15 f6 3d fe bd db bc
       -0.014290619 0.051859833 0.1201577 -0.026823994
000390 86 c3 52 be 84 e1 b8 3d 65 8c 56 be 6c bf a7 3d
       -0.20582399 0.09027389 -0.20951994 0.08190808
0003a0 51 9e 1f 3d d8 07 66 be d1 a2 b1 3d a6 b4 2b bc
       0.03896934 -0.2246393 0.08673633 -0.010480082
0003b0 41 de 7e 3c ee e0 48 3d 48 4f 85 3c 64 f3 54 bd
       0.015555919 0.049042635 0.016273156 -0.051989928
0003c0 8e 11 22 3d 58 a7 a0 3d 9f fa 1d 3e d7 9c cd 3d
       0.039567523 0.07844418 0.15427636 0.100396805
0003d0 4f d4 a3 bc 25 6f 0e 3e 03 c5 c3 bd a4 63 ad bd
       -0.019998698 0.13909586 -0.095590614 -0.084662706
0003e0 c9 df b1 3c 00 c1 aa bc 29 42 64 3d 9c e4 8f be
       0.021713154 -0.020843983 0.055727158 -0.28104103
0003f0 88 20 96 3b e1 03 e4 3d df b3 1a 3d 9b 35 ae 3d
       0.0045815147 0.11133552 0.037769195 0.08506318

fc2.bias f4 [128]
000000 43 34 72 3d 27 88 41 3d 67 b5 b6 3c fa 16 4d bd
       0.059131872 0.047248986 0.022303296 -0.05007074
000010 65 5e 01 3d 74 d4 89 bd 39 a1 16 3b 40 ad 1d 3d
       0.031584162 -0.06729975 0.002298428 0.038495302
000020 02 21 63 3c 81 b7 70 3c c9 61 a6 bd c6 6a 0e bd
       0.01386285 0.014692188 -0.0812412 -0.034769796
000030 fd 72 de bd d5 b2 ef bc 36 2d 04 bd a7 eb 42 3e
       -0.10861776 -0.029260078 -0.03226968 0.19035207
000040 8a 78 6c bd 5f 6f e1 bc ae 5a f0 3d ed 7a a7 3d
       -0.057732143 -0.027518926 0.11736046 0.08177743
000050 aa c8 fa 3d 04 de 9c 3d 8e 96 9d 3c a8 2f 1d bd
       0.12245305 0.076595336 0.01923683 -0.038375527
000060 00 f5 31 bd f9 d8 9b 3c e9 4f ed 3d c6 f1 b6 3d
       -0.04344654 0.019024359 0.11587507 0.089328334
000070 34 a8 07 bd b8 07 95 bc c3 12 0d 3e b9 fa a2 3d
       -0.033119395 -0.018192157 0.13776688 0.07957978
000080 9a be 1a 3e 24 4d 8f 3d cb 9c 90 3d 85 9f bb 3d
       0.15111771 0.06997135 0.07061156 0.09161285
000090 8f 3f f3 3c ca 81 77 3d 43 af 03 3e f7 f4 f4 3d
       0.029693393 0.06042651 0.12859826 0.11960786
0000a0 8e d1 c4 3d c6 36 f2 3c 9a cb 9a 3c 71 7b a7 3a
       0.09610282 0.029567134 0.018895913 0.0012777877
0000b0 54 df c1 3c ec 23 8f bd a5 66 2a 3e 62 a1 05 be
       0.023666061 -0.069892734 0.16640718 -0.13049844
0000c0 b2 71 59 3d 7c f6 d4 bc fb f4 bb 3d d7 97 8f bc
       0.053086944 -0.02599644 0.09177586 -0.017528458
0000d0 29 b3 85 3d fb ef 84 3d 22 10 0a 3e 9d a8 1a 3d
       0.06528313 0.06491085 0.13482717 0.03775846
0000e0 a1 e3 d9 3d 3e dd cb 3d 14 30 f3 bd 3a b9 b8 3d
       0.1063912 0.09954308 -0.118744045 0.09019704
0000f0 ae 3d 28 3b 48 94 09 3c 05 c4 fa bb 3e 8e 27 3e
       0.002567153 0.008397169 -0.007652762 0.16362855
000100 d7 0e a8 3d b4 68 b9 3d 87 f9 ae 3d 3c a1 34 bd
       0.082059555 0.09053174 0.08543687 -0.044099078
000110 80 c6 0b 3e 43 62 66 3d e5 91 2d 3e 3e 1a af 3d
       0.1364994 0.056246053 0.16950186 0.08549927
000120 c4 fe 52 3d d3 ca c2 3c ee 0b ff bc 16 5c bb bd
       0.051512495 0.023778355 -0.031133618 -0.091484234
000130 b6 21 db bd 53 d7 a0 3c d5 6e f1 3d fa 80 cb 3d
       -0.10699789 0.019633925 0.11788718 0.0993671
000140 b0 05 9f 3d c3 1f 04 3e 10 40 19 3d d7 06 4b bd
       0.07764757 0.12902741 0.03741461 -0.04956707
000150 04 2d d0 3c 0a 01 9d 3b 13 13 32 3d f6 37 ee 3d
       0.02541209 0.0047913836 0.04347522 0.116317675
000160 59 bd 9d 3b 44 9a 8c 3b 28 4e d2 3d 81 f0 ae bd
       0.0048138318 0.004290851 0.10268813 -0.08541966
000170 c1 c1 47 3d b4 9b 51 39 1c b5 aa 3c e3 bd 78 bb
       0.048768762 0.00019989797 0.020838313 -0.0037954978
000180 33 3a 43 bc 60 b3 71 bb 1c 43 1c 3e bc 98 b1 3c
       -0.011915731 -0.0036880597 0.15259975 0.021679275
000190 4c d1 a1 bb b0 4f 25 bd d6 47 2c 3e d2 6d f6 3d
       -0.00493828 -0.0403592 0.16824278 0.12032665
0001a0 ad 63 29 3e 97 8f bb 3c 3c 1b dc 3a 68 eb 57 3d
       0.1654193 0.022895617 0.0016792784 0.052714735
0001b0 a5 ea 33 bd de 90 5d bd cb 06 ac 3c 54 da 21 3c
       -0.043924946 -0.054093234 0.020999333 0.009878714
0001c0 51 86 92 3b a5 95 10 bd 2b 6a 00 3d 20 be 9c 3d
       0.004471578 -0.035298962 0.03135125 0.07653451
0001d0 92 fa 58 3d 57 40 e4 3c 01 2d b8 bc fc 84 19 bd
       0.052973337 0.02786271 -0.022482397 -0.03748034
0001e0 a4 2b d1 bc 1a ca 99 3d bd c7 d7 3d b8 0b 03 3e
       -0.025533505 0.07509251 0.10536144 0.12797439
0001f0 ef 8e bc 3d ea 72 97 bc 3b 7b b1 3d a9 a6 ef 3d
       0.0920695 -0.018487412 0.086660825 0.1170171

fc3.weight f4 [10, 128]
000000 ac 39 2e 3e 9b c1 9b 3d d5 f4 4b be f6 11 d1 bd
       0.17014188 0.07605287 -0.19917615 -0.10208504
000010 8c 77 38 be 53 ea c1 3c b7 0f d9 bd 8c bc e3 bc
       -0.18014354 0.023671305 -0.105987005 -0.027799867
000020 82 38 27 3e 52 a5 87 3d 9b 9b 4a bd 90 32 2f be
       0.1633015 0.06623329 -0.049464803 -0.17109132
000030 52 f0 09 be b3 36 00 3e b9 78 a9 bd 4a ba a7 bb
       -0.13470581 0.12520866 -0.08274979 -0.005118643
000040 7f af c7 bd 88 c7 58 be e3 ba 65 3c 82 fc 58 be
       -0.0975027 -0.21169865 0.014021608 -0.21190074
000050 61 43 9a 3d 2d 03 6a bd fa 6e 16 bc ae a9 0a 3e
       0.07532383 -0.057131935 -0.009181732 0.1354129
000060 8c 27 e5 3d 12 56 6e be f6 ad 25 be 1a 8f 0b 3d
       0.111891836 -0.2327502 -0.16179642 0.03407202
000070 3a 0d 8e be 9d 33 49 3d 19 92 8f 3b ae f6 28 3d
       -0.27744466 0.049121488 0.00438143 0.041250877
000080 b9 35 24 be cd dd e2 3d 36 a1 1b 3e 10 18 ca 3c
       -0.16036119 0.110774614 0.15198216 0.024669677
000090 e7 aa 57 3c 93 0d ca bb 59 bb 15 be 3c 20 79 3d
       0.013163305 -0.006166169 -0.14622249 0.060821757
0000a0 56 6d 73 3d 0f b3 67 3d ca e9 a4 3d 73 b9 2b 3e
       0.059430443 0.056567248 0.08052404 0.16769962
0000b0 8e b6 43 be b3 99 5e bd f3 a2 e1 3d d6 e0 38 3e
       -0.19112608 -0.054345798 0.11017408 0.18054518
0000c0 15 ca ef bd 6d 0f 8e 3e d5 3d b6 bd 6a d0 17 bd
       -0.11708466 0.27746144 -0.08898512 -0.037063994
0000d0 38 50 09 3e ba 8d 23 be fc 52 e1 3b 60 2b f4 3d
       0.13409507 -0.15972033 0.0068763476 0.119223356
0000e0 fa 68 86 be af 92 ed bd 85 59 1c 3e f0 36 71 be
       -0.26251966 -0.11600243 0.15268524 -0.23556113
0000f0 20 7c 40 3e e0 dc 93 3d 54 63 85 3d ac 26 60 bd
       0.1879735 0.07219863 0.06513086 -0.05472438
000100 50 f2 ad 3d 51 53 8d be 3a a9 e8 3d 9e 47 11 be
       0.08493483 -0.27602628 0.113604024 -0.14187476
000110 ad 51 78 be 72 04 35 be 60 5f 1e be d4 70 b2 3d
       -0.24249907 -0.17677477 -0.1546607 0.087129265
000120 f3 6a 47 3d 58 14 16 3e 37 07 de bd ea c2 c3 3d
       0.04868598 0.14656198 -0.1084122 0.09558661
000130 fe 2f 4f 3e f0 c0 90 bd b2 c5 8e be d2 4c a7 3d
       0.20233151 -0.0706805 -0.27885205 0.08168949
000140 c3 60 87 bd 7f 5d 9d be 64 46 40 be a3 a8 2f 3e
       -0.06610253 -0.30735394 -0.18776852 0.17154174
000150 7f 6e 9d bb b8 99 8b bd be 38 4a 3e 66 a6 21 bd
       -0.004804432 -0.06816429 0.19748208 -0.03946533
000160 f6 c9 0b be ba 0b 29 3e 23 74 6e be 5a 32 50 3e
       -0.1365126 0.1650838 -0.2328649 0.20331708
000170 45 18 97 bd 93 e6 9d 3d 07 fb 1a bc 3c f4 4d 3d
       -0.07377676 0.07709994 -0.009459264 0.05028175
000180 3a 47 94 bc d7 56 7a 3d c3 98 b2 bd 0a 14 1d bd
       -0.01810037 0.061117973 -0.08720543 -0.03834919
000190 fa 5a 2b be a8 c5 f5 3c 58 c5 02 be 16 19 27 be
       -0.16733924 0.030001476 -0.12770593 -0.16318163
0001a0 c2 f5 f4 bd a1 6e 22 be a2 6e 4c 3d 5b c0 b7 be
       -0.11960937 -0.15862514 0.049910195 -0.35888943
0001b0 ef 5b 81 3d 07 99 c0 3d 2e f5 cb 3b 59 4f 3d be
       0.06316363 0.09404188 0.006224296 -0.184873
0001c0 10 f3 53 be 68 b4 15 be 15 f2 1d 3e 98 87 11 3e
       -0.2069819 -0.14619601 0.15424378 0.14211881
0001d0 9c 1c ae 3d 33 73 e2 3d 7d 6a 40 be e6 b2 a2 be
       0.085015506 0.11057129 -0.18790622 -0.31777114
0001e0 12 90 63 bd b7 31 e2 3d ed d0 08 be 32 9f 85 be
       -0.055557318 0.110446386 -0.13360949 -0.2609802
0001f0 f5 6f 2f 3d 09 55 7f bd 27 f4 6b bd bd 2f 25 be
       0.04283138 -0.062336955 -0.05760589 -0.16131492
000200 d9 3e 82 bd e2 5e b0 bc 18 d9 29 3c 46 c7 75 bd
       -0.063596435 -0.021529619 0.010366701 -0.060004495
000210 ca 8e 59 be d8 dd c9 bd e6 f8 9b 3e fd 79 1e be
       -0.21245876 -0.098567665 0.30463332 -0.15476222
000220 f8 99 c5 be 1d 12 e0 3d e3 b8 aa bd 8f fb 83 3d
       -0.3859403 0.10940955 -0.083360456 0.06444465
000230 c8 af 60 bd 02 e0 61 3e f8 d1 17 bd 89 63 0e 3e
       -0.054855138 0.22058108 -0.037065476 0.13905157
000240 19 64 26 be 1b 18 05 3e aa d6 85 be fc 1c de 3c
       -0.16249122 0.12997477 -0.26140338 0.02711343
000250 6a 44 4a be f8 87 09 be 12 27 b1 be 3a 7d 97 be
       -0.1975266 -0.13430774 -0.3460012 -0.29587728
000260 01 97 34 be 87 c4 34 3e 9b f3 21 bb 95 4d f4 3d
       -0.17635728 0.17653094 -0.002471185 0.1192886
000270 a9 00 e6 bc d5 92 03 3e 81 8e 0a 3d 5f ee 2f 3e
       -0.028076487 0.1284898 0.03382731 0.17180775
000280 6e 67 34 3e af a9 72 be 6e 6b 96 3d da 60 95 be
       0.1761758 -0.23697542 0.07344709 -0.29175454
000290 d9 84 e2 bd 64 3c 07 be e9 93 aa bd 64 aa e2 3d
       -0.11060495 -0.13206631 -0.08328993 0.11067656
0002a0 eb 80 0f be 7d 8f 14 3e b2 6e b6 bd 3b 3f f8 bd
       -0.14014022 0.14507861 -0.08907832 -0.12121435
0002b0 dc cf 34 3e eb d3 20 3c 69 1a 42 be a4 81 d5 3d
       0.17657417 0.00981615 -0.18955387 0.104251176
0002c0 d7 65 ae 3b bf 2e 69 3d fb fa 59 be 41 7e 66 3d
       0.005322199 0.056929346 -0.21287148 0.05627275
0002d0 cf 56 0d 3d 1a 57 8d 3e f8 fe 4a be 80 74 cf bd
       0.034506615 0.27605516 -0.19823825 -0.101296425
0002e0 b2 20 6c bc 92 94 ed be 15 39 d1 bd 68 17 bc 3d
       -0.014412092 -0.46402413 -0.10215966 0.09184152
0002f0 6e 5b bd bd 77 07 52 be 6e 0f fa bd d7 17 43 be
       -0.092459545 -0.2051066 -0.12209974 -0.19052063
000300 d3 3d 03 3e a7 ff 80 be fd c5 bc 3d a4 66 f2 3d
       0.12816553 -0.25195047 0.09217451 0.118359834
000310 5a cc 27 3d 17 06 62 3d 97 9d 75 be b3 9f 0d be
       0.04096637 0.05518159 -0.23985897 -0.13830452
000320 97 73 3d be f9 cf 23 3e 46 af 61 bc e4 d7 67 3e
       -0.18501125 0.15997304 -0.013774699 0.2264095
000330 5c 1a db 3c f6 4a dc 3d 7a 00 1e 3d 8f cd 57 be
       0.026745968 0.10756485 0.038574673 -0.21074508
000340 1f d8 8f 3b b1 92 b7 3b 44 37 3c 3e 97 4d 5f be
       0.0043897773 0.005602204 0.18380457 -0.21806942
000350 8b 38 14 3e 6d d5 9d 3d 03 03 b4 3d 5e df 4a be
       0.14474694 0.07706723 0.08789637 -0.1981177
000360 ae b4 dc 3d 86 a0 5e be 37 b0 66 be ff 55 64 be
       0.107766494 -0.21740922 -0.22528158 -0.2229843
000370 9a e8 b8 bd 57 0a e0 3d 44 db 12 3c 77 e4 3c bd
       -0.0902874 0.10939472 0.00896341 -0.04611632
000380 21 80 04 bc ca 77 23 3e 8f df 3a be f5 d6 33 be
       -0.008087189 0.15963665 -0.18249343 -0.17562468
000390 5a 77 13 3e d6 c2 2f 3e 66 32 61 be 15 8c 07 bd
       0.14400998 0.17164168 -0.21991882 -0.033092577
0003a0 29 e8 d7 bd f7 6d 8d bd bb b3 2f 3d 8e 99 d7 3d
       -0.10542328 -0.0690574 0.042896014 0.10527335
0003b0 05 65 a6 bd 00 aa 6b 3d 9f fd a2 3d da 76 61 3d
       -0.08124737 0.05753517 0.07958531 0.055044986
0003c0 7a 3e ac 39 b3 86 34 3d fb 0c 23 be ac f8 c8 3d
       0.00032852945 0.04407377 -0.1592292 0.098130554
0003d0 b0 4d 89 bc f1 f4 de 3d b1 48 23 be d9 d6 36 3e
       -0.016760677 0.108865626 -0.15945698 0.17855395
0003e0 64 0c b0 3c b6 aa 0a be 4c 6b 06 bd 9f a5 02 3e
       0.021490283 -0.13541684 -0.03281717 0.12758492
0003f0 9f bc f4 bd ea 20 1e 3e d1 5d 6e be 44 1b 85 be
       -0.11950039 0.15442243 -0.23277976 -0.25997365

fc3.bias f4 [10]
000000 dc 17 bf bd 50 c6 b1 bd a8 0b 95 bd 80 7d 9a bc
       -0.09330723 -0.08680403 -0.07277614 -0.018858671
000010 ac 88 bc 3d 8e f9 0f 3d 40 48 85 bd ef 39 1d bd
       0.092057556 0.035150103 -0.06507921 -0.038385328
000020 d9 bc 5e 3d f6 7e 1b 3d
       0.054379318 0.037962876
